…
ability of dropout in the attention score matrix and dropout layer of the Attention mechanism model.compile( loss=\"categorical_crossentropy\", optimizer=keras.optimizers.Adam(learning_rate=1e-3), metrics=[\"categorical_accuracy\"]) #model.summary() model.summary() Model: \"model\" __________________________________________________________________________________________________ Layer (type) Output Shape Param # Connected to ================================================================================================== input_1 (InputLayer) [(None, 5, 1)] 0 [] layer_normalization (LayerNorm (None, 5, 1) 2 ['input_1[0][0]'] alization) multi_head_attention (MultiHea (None, 5, 1) 7169 ['layer_normalization[0][0]', dAttention) 'layer_normalization[0][0]'] dropout (Dropout) (None, 5, 1) 0 ['multi_head_attention[0][0]'] tf.__operators__.add (TFOpLamb (None, 5, 1) 0 ['dropout[0][0]', da) 'input_1[0][0]'] layer_normalization_1 (LayerNo (None, 5, 1) 2 ['tf.__operators__.add[0][0]'] rmalization) conv1d (Conv1D) (None, 5, 4) 8 ['layer_normalization_1[0][0]'] dropout_1 (Dropout) (None, 5, 4) 0 ['conv1d[0][0]'] conv1d_1 (Conv1D) (None, 5, 1) 5 ['dropout_1[0][0]'] tf.__operators__.add_1 (TFOpLa (None, 5, 1) 0 ['conv1d_1[0][0]', mbda) 'tf.__operators__.add[0][0]'] layer_normalization_2 (LayerNo (None, 5, 1) 2 ['tf.__operators__.add_1[0][0]'] rmalization) multi_head_attention_1 (MultiH (None, 5, 1) 7169 ['layer_normalization_2[0][0]', eadAttention) 'layer_normalization_2[0][0]'] dropout_2 (Dropout) (None, 5, 1) 0 ['multi_head_attention_1[0][0]'] tf.__operators__.add_2 (TFOpLa (None, 5, 1) 0 ['dropout_2[0][0]', mbda) 'tf.__operators__.add_1[0][0]'] layer_normalization_3 (LayerNo (None, 5, 1) 2 ['tf.__operators__.add_2[0][0]'] rmalization) conv1d_2 (Conv1D) (None, 5, 4) 8 ['layer_normalization_3[0][0]'] dropout_3 (Dropout) (None, 5, 4) 0 ['conv1d_2[0][0]'] conv1d_3 (Conv1D) (None, 5, 1) 5 ['dropout_3[0][0]'] tf.__operators__.add_3 (TFOpLa (None, 5, 1) 0 ['conv1d_3[0][0]', mbda) 'tf.__operators__.add_2[0][0]'] layer_normalization_4 (LayerNo (None, 5, 1) 2 ['tf.__operators__.add_3[0][0]'] rmalization) multi_head_attention_2 (MultiH (None, 5, 1) 7169 ['layer_normalization_4[0][0]', eadAttention) 'layer_normalization_4[0][0]'] dropout_4 (Dropout) (None, 5, 1) 0 ['multi_head_attention_2[0][0]'] tf.__operators__.add_4 (TFOpLa (None, 5, 1) 0 ['dropout_4[0][0]', mbda) 'tf.__operators__.add_3[0][0]'] layer_normalization_5 (LayerNo (None, 5, 1) 2 ['tf.__operators__.add_4[0][0]'] rmalization) conv1d_4 (Conv1D) (None, 5, 4) 8 ['layer_normalization_5[0][0]'] dropout_5 (Dropout) (None, 5, 4) 0 ['conv1d_4[0][0]'] conv1d_5 (Conv1D) (None, 5, 1) 5 ['dropout_5[0][0]'] tf.__operators__.add_5 (TFOpLa (None, 5, 1) 0 ['conv1d_5[0][0]', mbda) 'tf.__operators__.add_4[0][0]'] layer_normalization_6 (LayerNo (None, 5, 1) 2 ['tf.__operators__.add_5[0][0]'] rmalization) multi_head_attention_3 (MultiH (None, 5, 1) 7169 ['layer_normalization_6[0][0]', eadAttention) 'layer_normalization_6[0][0]'] dropout_6 (Dropout) (None, 5, 1) 0 ['multi_head_attention_3[0][0]'] tf.__operators__.add_6 (TFOpLa (None, 5, 1) 0 ['dropout_6[0][0]', mbda) 'tf.__operators__.add_5[0][0]'] layer_normalization_7 (LayerNo (None, 5, 1) 2 ['tf.__operators__.add_6[0][0]'] rmalization) conv1d_6 (Conv1D) (None, 5, 4) 8 ['layer_normalization_7[0][0]'] dropout_7 (Dropout) (None, 5, 4) 0 ['conv1d_6[0][0]'] conv1d_7 (Conv1D) (None, 5, 1) 5 ['dropout_7[0][0]'] tf.__operators__.add_7 (TFOpLa (None, 5, 1) 0 ['conv1d_7[0][0]', mbda) 'tf.__operators__.add_6[0][0]'] global_average_pooling1d (Glob (None, 5) 0 ['tf.__operators__.add_7[0][0]'] alAveragePooling1D) dense (Dense) (None, 10) 60 ['global_average_pooling1d[0][0]' ] dropout_8 (Dropout) (None, 10) 0 ['dense[0][0]'] dense_1 (Dense) (None, 7) 77 ['dropout_8[0][0]'] ================================================================================================== Total params: 28,881 Trainable params: 28,881 Non-trainable params: 0 __________________________________________________________________________________________________ Model Run # Restart after patience until total number of epochs desired_epochs = 50# GT modif patience =3 patie
…
